…
Extracting features from /home/bill/code/AI/data/Data/genres_original/rock/rock.00048.wav
Extracting features from /home/bill/code/AI/data/Data/genres_original/rock/rock.00084.wav
Extracting features from /home/bill/code/AI/data/Data/genres_original/rock/rock.00051.wav
Extracting features from /home/bill/code/AI/data/Data/genres_original/rock/rock.00060.wav
Extracting features from /home/bill/code/AI/data/Data/genres_original/rock/rock.00045.wav
: (998, 128, 1292)
: (998,)
: (638, 128, 1292, 1)
: (160, 128, 1292, 1)
: (200, 128, 1292, 1)
Model: "functional"

 Layer (type)                     Output Shape                  Param # 

 input_layer (InputLayer)         (None, 128, 259, 1)                 0 

 conv2d (Conv2D)                  (None, 128, 259, 64)              640 

 batch_normalization              (None, 128, 259, 64)              256 
 (BatchNormalization)                                                   

 max_pooling2d (MaxPooling2D)     (None, 64, 129, 64)                 0 

 dropout (Dropout)                (None, 64, 129, 64)                 0 

 conv2d_1 (Conv2D)                (None, 64, 129, 128)           73,856 

 batch_normalization_1            (None, 64, 129, 128)              512 
 (BatchNormalization)                                                   

 max_pooling2d_1 (MaxPooling2D)   (None, 32, 64, 128)                 0 

 dropout_1 (Dropout)              (None, 32, 64, 128)                 0 

 conv2d_2 (Conv2D)                (None, 32, 64, 256)           295,168 

 batch_normalization_2            (None, 32, 64, 256)             1,024 
 (BatchNormalization)                                                   

 max_pooling2d_2 (MaxPooling2D)   (None, 16, 32, 256)                 0 

 dropout_2 (Dropout)              (None, 16, 32, 256)                 0 

 conv2d_3 (Conv2D)                (None, 16, 32, 512)         1,180,160 

 batch_normalization_3            (None, 16, 32, 512)             2,048 
 (BatchNormalization)                                                   

 max_pooling2d_3 (MaxPooling2D)   (None, 4, 8, 512)                   0 

 dropout_3 (Dropout)              (None, 4, 8, 512)                   0 

 reshape (Reshape)                (None, 8, 2048)                     0 

 bidirectional (Bidirectional)    (None, 8, 512)              4,720,640 

 dropout_4 (Dropout)              (None, 8, 512)                      0 

 bidirectional_1 (Bidirectional)  (None, 512)                 1,574,912 

 dropout_5 (Dropout)              (None, 512)                         0 

 dense (Dense)                    (None, 512)                   262,656 

 dropout_6 (Dropout)              (None, 512)                         0 

 dense_1 (Dense)                  (None, 10)                      5,130 

 Total params: 8,117,002 (30.96 MB)
 Trainable params: 8,115,082 (30.96 MB)
 Non-trainable params: 1,920 (7.50 KB)
Epoch 1/100
[1m 1/20[0m [32m[0m[37m[0m [1m2:27[0m 8s/step - accuracy: 0.0000e+00 - loss: 2.3498[1m 2/20[0m [32m[0m[37m[0m [1m43s[0m 2s/step - accuracy: 0.0234 - loss: 2.3290     
…
